…
bad_scores_test < -1: 232
bad_scores_test < -1: 139
bad_scores_test < -2: 70
--------------------------------------------------
normal_scores < 2: 165
normal_scores < 1: 162
normal_scores < 1: 160
normal_scores < 0: 159
normal_scores < 0: 158
normal_scores < 0: 154
normal_scores < 0: 144
normal_scores < 0: 138
normal_scores < 0: 130
normal_scores < 0: 127
normal_scores < 0: 114
normal_scores < 0: 104
normal_scores < 0: 85
normal_scores < 0: 69
normal_scores < -1: 62
normal_scores < -1: 43
normal_scores < -2: 18

OPTForCausalLM(
  (model): OPTModel(
    (decoder): OPTDecoder(
      (embed_tokens): Embedding(50272, 2048, padding_idx=1)
      (embed_positions): OPTLearnedPositionalEmbedding(2050, 2048)
      (final_layer_norm): LayerNorm((2048,), eps=1e-05, elementwise_affine=True)
      (layers): ModuleList(
        (0): OPTDecoderLayer(
          (self_attn): OPTAttention(
            (k_proj): Linear(in_features=2048, out_features=2048, bias=True)
            (v_proj): Linear(in_features=2048, out_features=2048, bias=True)
            (q_proj): Linear(in_features=2048, out_features=2048, bias=True)
            (out_proj): Linear(in_features=2048, out_features=2048, bias=True)
          )
          (activation_fn): ReLU()
          (self_attn_layer_norm): LayerNorm((2048,), eps=1e-05, elementwise_affine=True)
          (fc1): Linear(in_features=2048, out_features=8192, bias=True)
          (fc2): Linear(in_features=8192, out_features=2048, bias=True)
          (final_layer_norm): LayerNorm((2048,), eps=1e-05, elementwise_affine=True)
        )
        (1): OPTDecoderLayer(
          (self_attn): OPTAttention(
            (k_proj): Linear(in_features=2048, out_features=2048, bias=True)
            (v_proj): Linear(in_features=2048, out_features=2048, bias=True)
            (q_proj): Linear(in_features=2048, out_features=2048, bias=True)
            (out_proj): Linear(in_features=2048, out_features=2048, bias=True)
          )
          (activation_fn): ReLU()
          (self_attn_layer_norm): LayerNorm((2048,), eps=1e-05, elementwise_affine=True)
          (fc1): Linear(in_features=2048, out_features=8192, bias=True)
          (fc2): Linear(in_features=8192, out_features=2048, bias=True)
          (final_layer_norm): LayerNorm((2048,), eps=1e-05, elementwise_affine=True)
        )
...

todo:
1、lora with appropriate learning rate：与original的结果完全一致，但训练的loss确实出现了较大幅度的变化 --double check
2、loss三项的消融实验：只有bad_loss项的结果整体好于三项的结果；只有random_loss项的结果、只有normal_loss项的结果，以及bad_loss项+random_loss项的都结果不如整体不如三项的结果；只有bad_loss项会导致模型输出只有空行 (无论是对bad_question，还是对normal_question)
3、masked：masked-0.5，masked-0.25，masked-0.75全方面效果下降 --缓解不用第三项的效果下降 --限制parameter还是output(attention score) --换为threshold
…
